software/data_collection_platform/eegnet_bands_openbci.pt (torch, 13989 bytes, 20 tensors)

conv1.weight f4 [16, 1, 18, 1]
00000000: 9961 1abd 8f84 bd3d f763 3bbe 685d eebd
00000010: 7555 f4bd 1051 f33d f0b0 8a3c 7eca 1d3e
00000020: e0a6 c6bd 859d 423e ad72 2fbd 68c0 21bd
00000030: 19fc 72be 4d72 25be 7896 01be 6dcf 58bc
00000040: 2425 1f3e 4c63 a73d f556 f2bd b3bf 53bd
00000050: 3095 773d 64b6 2c3e 2550 71bd b9f4 303e
00000060: d1a7 f2bd 26bf 423d 3a39 5a3e 75e0 aebe
00000070: 8193 65be 78f1 ee3c 3c4f 8abd a5ae 653e
00000080: a13b 32be ee9f 9bbd c8cb 0ebe e678 5ebe
00000090: e828 15be 678c 623e 60ba 863c 8099 d73d
000000a0: a7b5 dc3c 599d fcbd 0a9b 923c 162c 52be
000000b0: a9c1 31be 859d b3bd c99b 3e3e 253d 013e
000000c0: f962 a3bd e3ba 073d 9d75 413e db1d 7d3e
000000d0: 5cc2 5e3d 4436 3b3d bb73 d03d 2d64 12be
000000e0: e79d 233d 77a0 e8bd 7069 2cbe a39a eebd
000000f0: e3cf 313e d1a4 203e da8b 14be ca7c c13c
00000100: 826c c03d b88b cebd aa80 5ebd c681 cf3b
00000110: f7da e73d dd4d 4d3e 98d0 3bbe 6dfa c2bd
00000120: 089d a43d bb55 743e df0b 193e 96f5 813e
00000130: 3b96 4a3d 76b0 c1bd 2cce f13c b327 febd
00000140: 21f5 2dbe 874d 1c3e 51a2 103e 7b52 9abe
00000150: 62ed b03d 648a 13bd 6643 a1bd a849 f7bd
00000160: b382 e43c b970 8bbe d08a 083e 60f1 4f3d
00000170: f0b2 f73d a2d3 9e3d e62c 94be f55f 1fbe
00000180: f3be 433e 963d 9dbb c564 39be e7cf c2bd
00000190: c036 7a3e 1f19 443e 4306 e6bd 24f1 32bd
000001a0: 9a92 0fbe 593d 8c3d 15cd 37be 4e49 20be
000001b0: c330 0cbd 0ea2 df3c 91e8 5dbd 2a88 ac3d
000001c0: e1b8 34bd c01f 783e 8368 1b3e 5d6c 73be
000001d0: bb82 4dbc f429 bbbc bc37 2a3c 6a7c 643d
000001e0: 2fe5 fe3d 3f24 3e3d 7658 c4bd 695c 9e3d
000001f0: 2a0c a2be b3b3 eebd d526 bdbc 475d adbd
00000200: 2d22 57bc 1762 c1bd 3994 83bd e874 8cbc
00000210: 5e35 81be e504 5cbd 4604 f83d 2b7a 9cbd
00000220: 082e 5abd b35a adbd eb8d 03bc 89b0 143e
00000230: 6fdb 683e a3d9 213e cbe4 333e fb7d 31bd
00000240: edc7 1cbe 58e2 4fbd ae5c 213e 6548 3abb
00000250: ee92 66be 1edc 39be df55 34be d837 35be
00000260: 5b44 4dbc dc71 2c3e 1c30 c33d 452a 7abe
00000270: fbfc d73d 06a6 4cbe 4b4f 03be b938 2cbe
00000280: bc4e b0bd 64ec 96bd 8dab 16be a7d9 30be
00000290: beef 9ebc 9c68 5c3c e4ac c0bd c18c ed3d
000002a0: ae3d 8fbe e601 93bd d24f 2d3e 3cc5 79be
000002b0: 58e6 3f3e 0ecd a83d 1263 17be 2d1b 3d3e
000002c0: 8967 ecbc 29fe dabd 6e9e 333e a00a 31be
000002d0: b90a 2a3d 9847 5cbd c88e ee3d 4275 d2bc
000002e0: c92c 8f3d 91ef d63d be32 16bd c7aa 07bd
000002f0: 6517 58be de08 f43d e9a9 6a3e f1b3 1b3e
00000300: 24c4 0bbe fed6 3e3d 742a 4cbe 4d78 ffbd
00000310: 3bb3 e3bd 5f41 3f3e fbdd b0bd 6764 cc3c
00000320: 80b6 3abc 5f11 a53d 703a 4dbe 3be0 40be
00000330: a8dc 2ebe 3675 583e f1f0 8bbd 5009 503e
00000340: 11cd ac3d 6f66 113d 0139 f13c 4d06 adbc
00000350: e5f7 7c3d cf90 e3bc 9c84 8e3c d82b db3c
00000360: ef42 d7bd ad0f f2bd b7f3 783e 40bf 70be
00000370: a718 31bd 07ba 493e 0aec 983d ce43 26bc
00000380: 6f50 c1bd 53b6 1e3e 6ca2 2fbe 3cd5 b9bd
00000390: 45b8 0ebe ff76 e8bd ec5d abbc 2923 273e
000003a0: 18fb 22bd a072 5a3e 3a15 223e 7bf1 04be
000003b0: 1167 df3d 33fd 18be f963 c1bd c40f 1d3d
000003c0: c631 71bc 0d80 343e 619c bfbd 8e13 db3c
000003d0: 062d ce3d 41ba 47be 5d72 623e 77c1 67be
000003e0: 216a fd3b 9729 003c 22cd 4dbe 892d ec3c
000003f0: 2d2a 1e3e c574 e0bd 7892 10be 860a eabd
-0.037690733 0.09253799 -0.18299852 -0.116389096 -0.11930362 0.11880696 0.016930073 0.15409276
-0.09699798 0.19005401 -0.042833973 -0.039490134 -0.2372898 -0.16156884 -0.12655056 -0.013233048
0.15541512 0.08173236 -0.11832992 -0.05169649 0.06044501 0.16866452 -0.058914322 0.17280854
-0.11848415 0.047545575 0.21310893 -0.34155622 -0.2241955 0.029167876 -0.06753394 0.22429903
-0.17405559 -0.075988635 -0.13944924 -0.21725807 -0.14566386 0.22123872 0.016446292 0.10527325
0.026942087 -0.12334699 0.017896194 -0.2052463 -0.17359032 -0.08770279 0.18614115 0.12620981
-0.07977862 0.033137213 0.18892522 0.2471842 0.054384574 0.04570605 0.10178324 -0.14296027
0.03994551 -0.11358731 -0.16837096 -0.11650588 0.17364459 0.15687872 -0.14506474 0.023619074
0.09395696 -0.10085243 -0.054321922 0.006332609 0.11321061 0.20049234 -0.18341291 -0.09520421
0.08037764 0.23860829 0.14945935 0.2538268 0.049459677 -0.094574854 0.029517256 -0.12409916
-0.1698804 0.1526395 0.14124419 -0.30141053 0.08639027 -0.03602065 -0.07874183 -0.12074596
0.027894353 -0.27234438 0.13334203 0.050767303 0.120946765 0.077552095 -0.28940505 -0.15563948
0.1911581 -0.0047986014 -0.18104847 -0.095123105 0.24434948 0.19150208 -0.11231663 -0.043687
-0.14020768 0.06847639 -0.17949326 -0.15652964 -0.03422619 0.027298953 -0.05417687 0.08424409
-0.044121627 0.24230862 0.15176587 -0.23771806 -0.012543376 -0.022847153 0.010389265 0.055782713
0.12446057 0.046421286 -0.09587185 0.077324696 -0.31649905 -0.11655369 -0.023089806 -0.08465057
-0.013130707 -0.09442537 -0.064247556 -0.017145589 -0.25236028 -0.053715605 0.1211019 -0.07640489
-0.053266555 -0.08464565 -0.008029441 0.14520468 0.22739957 0.15805678 0.17567746 -0.043333035
-0.1531064 -0.050752968 0.1575801 -0.0028424498 -0.22516987 -0.18150374 -0.17610882 -0.17697084
-0.012528504 0.16840309 0.095306605 -0.24430187 0.10546299 -0.19985208 -0.12823217 -0.16818513
-0.086087674 -0.07369307 -0.14713879 -0.17270528 -0.019401427 0.013452675 -0.09407976 0.11599112
-0.27976745 -0.071780965 0.1692498 -0.24391645 0.18740213 0.08242236 -0.14783886 0.18467398
-0.028857963 -0.106930085 0.17540905 -0.1728921 0.041514132 -0.053779215 0.11648327 -0.025690679
0.06990964 0.104949124 -0.036669485 -0.03312185 -0.21102674 0.11915754 0.22916378 0.15205361
-0.1364904 0.04659175 -0.1993807 -0.124741174 -0.1111817 0.18677281 -0.086360894 0.02495022
-0.01139605 0.08059954 -0.20041823 -0.18835537 -0.17076361 0.21138462 -0.06833065 0.20316052
0.08437551 0.03549808 0.029446127 -0.021121169 0.06175985 -0.027779011 0.017397217 0.026754305
-0.105108134 -0.11819396 0.2431172 -0.23510456 -0.0432364 0.1969987 0.07466896 -0.010148002
-0.094391696 0.15499239 -0.17151803 -0.09073874 -0.13937481 -0.11350822 -0.020918809 0.16322006
-0.039790243 0.21332788 0.1582841 -0.12982742 0.1090833 -0.14940338 -0.094428964 0.038345113
-0.01472134 0.17626972 -0.09355999 0.026742723 0.10067181 -0.19504644 0.22113939 -0.22632395
0.007733599 0.007822416 -0.20097783 0.028830307 0.15445776 -0.10959772 -0.14118373 -0.114277884

conv1.bias f4 [16]
00000000: 57d2 eabd ece0 cbbd 6788 c2bd 1d6d 313d
00000010: 331b b63d ae05 56bd e078 c6bd 2f93 cdbd
00000020: 8a21 5a3e 35cb 35be feb2 dc3d f2de 4dbd
00000030: f15a 64be 0313 e43d fc93 efbd 102f be3b
-0.114659004 -0.0995501 -0.09498673 0.04331695 0.088919066 -0.05225151 -0.09691024 -0.10037839
0.21301857 -0.17753299 0.107763276 -0.050261445 -0.22300316 0.11136439 -0.11698148 0.00580395

norm1.weight f4 [16]
00000000: 9eb6 803f 9d8e 823f 6e03 7f3f 13ce 683f
00000010: ed00 843f aad2 813f 7f80 7a3f ca96 5e3f
00000020: 4204 7e3f a7ae 6d3f 3fdf 813f d906 6c3f
00000030: bf6d 8a3f e4a2 7e3f 8071 6e3f 19f9 643f
1.005573 1.0199772 0.9961461 0.90939444 1.0312783 1.0142415 0.9785232 0.86948836
0.99225247 0.92844623 1.0146254 0.9219795 1.0814742 0.994673 0.9314194 0.8944259

norm1.bias f4 [16]
00000000: 1f95 bd3c c340 18bd ec14 a83c 1c6e 6cbb
00000010: 920b 0abd 77ce df3c f22c ab3a 6534 5aba
00000020: 6669 11bd 00e8 b43a 25fa 7a3b 6463 b639
00000030: 5969 da3a e5b2 09bd 63ae 12bd a881 c239
0.023142396 -0.037171137 0.020517789 -0.0036076372 -0.03370244 0.02732013 0.0013059659 -0.00083238474
-0.035500906 0.0013802052 0.003829607 0.00034787797 0.0016663476 -0.033617873 -0.03581084 0.00037099165

norm1.running_mean f4 [16]
00000000: 8c1f 0cbd e2eb 4fbb d6cc 66bc 1ce1 bb3d
00000010: 7cdd 473e e1f8 5c3d f4bd 39bd 1c30 35bd
00000020: 4a8b 813e 435b 8abd 6d66 073e c2c1 263b
00000030: 8901 d7bd 673b 0b3e b48d d1bc 5352 523d
-0.034209773 -0.003172629 -0.014086923 0.091737956 0.19518083 0.053948287 -0.04534717 -0.044235334
0.25301582 -0.06755688 0.13222666 0.0025445078 -0.1049834 0.13596879 -0.025580265 0.05134804

norm1.running_var f4 [16]
00000000: 268d 4a3e fc05 833e f509 603e 243d 4d3e
00000010: 52f1 f43e 35c3 ae3e 3e70 033e f44b 0e3e
00000020: 5821 963e c1b7 663e 4365 193e 7726 2c3e
00000030: 0f9b 543e 988c 343e bc3e 6d3e 236f 323e
0.19780406 0.25590503 0.21878798 0.20042855 0.47840363 0.34133306 0.12835786 0.13896161
0.29322314 0.22531034 0.14980035 0.16811548 0.20762275 0.17631757 0.23168463 0.17425208

conv2.weight f4 [4, 1, 2, 32]
00000000: 781b 263d 6435 c6bd baa4 da3c 71a8 883c
00000010: 7fae 71bb 14ae c3bd 3cd0 2fbe 3abd 90bd
00000020: 109a e33a 1e49 8bbd 76cf fb3c 43eb ac3d
00000030: 86e1 cabc 0b7a 0c3d 4b89 d03d a198 ef3c
00000040: 8c21 e83b c7a1 19bc e652 e2bd aedb d4bc
00000050: fe44 b33d c4fa f13d 3633 bf3d 5456 5a3d
00000060: 4251 743d a76d 43bd 3ab6 dcbd 1bda d4bd
00000070: 7ca7 ab3d c718 6b3d 39d4 95bd 476e 1b3d
00000080: d27f 8b3d 8b73 bc3d e5e0 a73d 24c2 cf3d
00000090: dae3 c6bc b1fe efbc ef93 f03d 63af b53d
000000a0: edac 55bc 1f64 d43d eb7b 1e3d 75da f33c
000000b0: 0f18 c9bd 6af4 003d 0ff7 a2bc ef48 ea3d
000000c0: b246 523c 4351 8a3d 8ec8 ac3c 0df4 aa3c
000000d0: 46d3 87bd 6811 cf3c d567 cfbd b00f d9bc
000000e0: 13ec fcbd 74c1 18be 436d cabd e0e0 ef3d
000000f0: 5abc c53d dcdf 0a3e 7361 9c3d 93ab f1bd
00000100: cebd f7bd c022 89bd 77c1 cebd 10f7 7a3d
00000110: 7dde b1bd ee4a 24bd 7225 aabd a2db 27bd
00000120: 010a e53d ab74 f43d 33df cb3d af3a a43d
00000130: d9de ff3d 1d46 55bb 297d af3d b459 213e
00000140: 46b7 a93d a335 f03d 565e b03d 9229 943d
00000150: deaf 48bd 8855 3a3d dd55 e2bb 4ed8 3cbd
00000160: a53c a3bd 04f9 b8bd 9712 f0bd 051a 823d
00000170: 47be 423d 3074 57bd 5513 07be c497 09bc
00000180: 8ea0 573d 8964 e8bb d0d6 a5bd 7518 c73d
00000190: 043c 703d b88f a9bd 5ce1 1a3e 4fcc d53d
000001a0: a61b eebc 9ba1 973d 56d4 37bd ec6a 1abd
000001b0: 9f4c a63d db3c 0d3c 0fed 5fbd 850c c83b
000001c0: 01f7 b63b 33b1 713c e9ea 6439 858b 023e
000001d0: 2554 c0bc 0ca9 c7bd 7b9e d2bc c5f0 0b3c
000001e0: c65e b23c ada2 0ebe a9d1 06bd 4257 95bd
000001f0: d738 81bd b19c c13c 7b69 e6bd 7254 93bc
00000200: e19f b03d 4c07 833c 718e 9dbd 9893 d6bc
00000210: db01 c23c 1641 dabd ec4d db3c c2a2 f8bd
00000220: a3ba f8bd 72f9 f2bd c31b 45bd 1b11 233d
00000230: 4a1d 13be e759 273d 468b c3bd af03 85bc
00000240: 29b3 81bc 2c6e a7bd 3b4e d33d b0e1 8e3d
00000250: 4215 f73d ba88 823d 37c2 20bd 37b9 013e
00000260: 1be6 0c3d e67b 493d 1942 00be be39 d4bd
00000270: 530a 28be e57e bfbd e4f1 123c f171 7abd
00000280: 57df cd3b 29d7 043d 2be7 95bc c78d b7bd
00000290: 2c3b dfbd 13b0 08bd cb05 803d 77c0 e93d
000002a0: 9097 723d 5a47 7ebc ed49 8f3c ef8f f7bd
000002b0: e872 f1bd bd13 183d e7e8 74bd 46e4 143d
000002c0: 7974 88bd b645 87bd 3406 85bd 119f 9f3d
000002d0: 8b11 133c cc07 113e 690c fd3d 691c d73d
000002e0: 4b86 f03c 6c7b 93bc bc13 4bbc da8f 8f3c
000002f0: aac6 823d 572f 8fbd c3e4 a03d 6473 cabc
00000300: 5755 08be a69d b6bd 1676 953d 83d3 d83d
00000310: 61cd 91bd 39c4 203e 39a3 d83d 50f4 d53d
00000320: d3bf 053e dd79 7bbd d2c5 083d 498e 6c3d
00000330: 682b dfbc 2338 5d3d c88a 99bc fc4c 993d
00000340: 2936 53ba 98a2 50bd 0f6c f23c 7dcf 873d
00000350: 0454 04bd 5e56 ff3c 9b0d c43d 56c9 5b3c
00000360: 05da 543d c2b0 13bd ff6f 853c 0b77 cbbd
00000370: d0b4 aebd 51a4 abbd e995 a63d c73b 85bc
00000380: 07f2 f03c 7cee 5dbc 9ca3 193e 2d7d 0c3e
00000390: 5177 8abd afe3 f5bd 2eff cbbd 0857 06bd
000003a0: fa62 48bd e0db a4bd f7b4 25bd 17d3 053d
000003b0: 67c7 04bd 3b2b 553d ffc4 3f3b 43ac 1ebd
000003c0: 1fdb b13c 830b c33d a9bb 91bd f575 993c
000003d0: 1585 9bbc ef76 f73d 70af e8bd 1298 e1bd
000003e0: eb41 c03d 56a8 acbd 1dc5 343c 30e3 b1bc
000003f0: 2fba 64bd a3e3 6cbd b2bb fe3c 241b a6bc
0.04055354 -0.09678152 0.026689876 0.016681882 -0.003687769 -0.09554687 -0.17169279 -0.07067342
0.001736464 -0.06801055 0.030738574 0.0844331 -0.024765741 0.034296077 0.101824366 0.029247584
0.007084077 -0.00937695 -0.11050968 -0.025983658 0.087533936 0.11815408 0.093359396 0.053304985
0.059647806 -0.047711994 -0.107769445 -0.10393163 0.083815545 0.057396676 -0.07315869 0.037946966
0.06811489 0.092017256 0.08197192 0.10144451 -0.02427857 -0.029296251 0.11746966 0.08871343
-0.013041717 0.10370659 0.038692396 0.029767254 -0.09819042 0.03148309 -0.019893197 0.11439692
0.012834238 0.06753781 0.021091726 0.020868326 -0.06632094 0.025276855 -0.10127226 -0.026496738
-0.12349715 -0.14917547 -0.09884121 0.117128134 0.09655066 0.13561958 0.076357745 -0.11800303
-0.12096749 -0.06696081 -0.10095494 0.061270773 -0.086850144 -0.04011052 -0.083079234 -0.040980943
0.11183549 0.11936315 0.09954681 0.080190055 0.12493677 -0.0032543011 0.08568794 0.15756875
0.0828691 0.117289804 0.08611743 0.072344914 -0.048995845 0.045491725 -0.0069072084 -0.04610472
-0.079705514 -0.09031871 -0.11722296 0.06352619 0.047544744 -0.05260104 -0.13190968 -0.008398
0.05264335 -0.007092063 -0.08097613 0.09721462 0.058650985 -0.08279365 0.1512503 0.104393594
-0.029065918 0.07403871 -0.044880234 -0.037699625 0.08120083 0.008620466 -0.054669436 0.006105008
0.0055836444 0.01475172 0.00021831285 0.12748535 -0.023477623 -0.0974904 -0.025710335 0.008541291
0.021773707 -0.13929243 -0.03291479 -0.07292034 -0.063096695 0.023634287 -0.112505876 -0.017984603
0.086242445 0.01599469 -0.07693184 -0.026193425 0.023682525 -0.106569454 0.026770554 -0.121404186
-0.12144973 -0.11863984 -0.04812218 0.039811235 -0.14366642 0.040857222 -0.09548049 -0.016237108
-0.0158325 -0.081753105 0.10317656 0.0697664 0.120646015 0.06373735 -0.039247718 0.1266831
0.034399133 0.049190424 -0.12525214 -0.10362576 -0.16410188 -0.09350375 0.008968804 -0.06114382
0.0062827277 0.032431755 -0.018298706 -0.08962589 -0.10899958 -0.033371042 0.06251105 0.11413663
0.059226573 -0.015519941 0.017491305 -0.12088 -0.11789495 0.0371282 -0.059792425 0.03635051
-0.066628404 -0.06605093 -0.06495324 0.077940114 0.008976351 0.1416313 0.12355883 0.10503466
0.02936091 -0.018003188 -0.012394842 0.017524648 0.063855484 -0.06991451 0.07856133 -0.024713226
-0.13313805 -0.08916788 0.07297914 0.10587218 -0.07119251 0.15699853 0.10578007 0.104469895
0.13061456 -0.061395515 0.03339178 0.05775288 -0.027242377 0.054008614 -0.018742934 0.07485387
-0.0008057082 -0.05093631 0.029592542 0.06631372 -0.032306686 0.031169113 0.095729075 0.013414701
0.051965732 -0.03605724 0.016288755 -0.09934815 -0.08530581 -0.0838095 0.08134062 -0.016263856
0.029412283 -0.013545629 0.15003818 0.13719626 -0.06761039 -0.12006318 -0.09960781 -0.032797843
-0.048922516 -0.0804975 -0.040455785 0.032672014 -0.032416727 0.05204318 0.0029261706 -0.0387385
0.02171093 0.0952368 -0.071158715 0.018733004 -0.018984357 0.12083232 -0.11361587 -0.11015333
0.09387573 -0.08430545 0.011033324 -0.021714777 -0.05584162 -0.05783428 0.03109536 -0.020276614

conv2.bias f4 [4]
00000000: 4b56 16be b5a8 cabd 51e4 93bb 93a8 bc3d
-0.14681356 -0.098954596 -0.0045133014 0.092118405

norm2.weight f4 [4]
00000000: 3a54 843f 7c07 853f fac9 803f 19fa 713f
1.0338204 1.0392909 1.0061638 0.94522244

norm2.bias f4 [4]
00000000: 45e7 ec3b 37ef b43c 476e 2f3d a18f 16bd
0.007229718 0.022086723 0.042829778 -0.03675807

norm2.running_mean f4 [4]
00000000: c6a5 923b da47 a63d 987d 0f3e 42c3 303e
0.004475328 0.08119173 0.14012754 0.17261985

norm2.running_var f4 [4]
00000000: c6b7 cd3e c822 173f e212 0c3f f4f8 c23e
0.4017927 0.59037447 0.5471631 0.3808056

conv3.weight f4 [4, 4, 8, 4]
00000000: c957 212e efcb 6eb0 6d81 722c 58bd 3b2c
00000010: f660 ac3d 8d2b 983d 5b75 c63d dcfc d23d
00000020: 9650 b5bd 123c e8bd 516a 62bd 8caf c63c
00000030: 19b9 8cbc a0c1 08bc 78b7 733d 46be 393d
00000040: 0aff 0ebd 2489 c9bd e086 a8bd c587 e5bc
00000050: 735a 90bb ebe2 e0bb d270 23bd 662c 253c
00000060: 0e12 383d 8749 643d 571e 7f3b 83de 9fbd
00000070: 7930 96bd aa4f b63d 0637 693d 5320 8b3c
00000080: 5f1b 99af 01d4 27b0 dd1b 78b0 0a13 19af
00000090: fe94 7dbd e682 57bd c94b 373a 13d5 d13d
000000a0: 10fc 48bd 59be b5bd 9053 ffbc 0371 b7bd
000000b0: 3eff babc c9f0 95bc d022 61bd ab52 cdbd
000000c0: 48e2 dd3d 62bc a4bc d97c 0bbd 4335 0dbd
000000d0: e3cb 3d3d 9a08 153d 9783 2e3d 772c acbc
000000e0: 93ad 8bbd b138 873d c1d7 363d e5e1 95bd
000000f0: b9a4 7bbd 137b 82bd ced6 a43d fa29 9abc
00000100: ea05 ac2f bb26 d4a9 c9f2 b2ad be90 2dac
00000110: 911b 393d d891 6c3c 7960 073d 7f2f a0bd
00000120: 9ee6 d8bd 50f9 95bd 278b c2bd e2e0 91bb
00000130: 9198 43bd c5ce 933c aa22 773d e8af 7d3c
00000140: e52f bbbc 048d 293c 0732 94bd 53ec 313d
00000150: b8c7 92bd 94d9 67bd d0de 5f3c 043d 77bd
00000160: f487 b53d d153 cfbc 6048 b6bd 6a57 62bd
00000170: e307 ca3c e760 ac3d a883 1bbd 2ccd 06bd
00000180: 6449 682c f34d 86ab fcfd 872d 7ebc fa2e
00000190: 6e2d 223d b13c cd3d 63a2 bebc 249a 983d
000001a0: 96c2 a13b b0d8 893d 74de e2bd 0f2a 9ebd
000001b0: 0e4c 223d 47ea 8b3c 79b5 383d c61a db3d
000001c0: fc5e 13bb 0a15 8cbb 37d3 e9bc e9f3 40bd
000001d0: 29ba 3d3d 267e 92bd 6c3a ffbc 44a7 03bc
000001e0: 4f32 ac3c 46b4 443d af38 9bbc 623b 70bd
000001f0: a8b3 bd3c 7646 693c addd 7cba 0eb3 a8bd
00000200: 6cdb 1eae d0d0 77b0 0fa3 982b 9322 4f30
00000210: 8399 2e3d 0e4c 27bd e4e1 94bb 954d 873c
00000220: c2b1 30bd 3cc5 083c 9210 febd ef03 c93b
00000230: 11f9 a1bd e6af d9bc 8ef3 ce3b 592b ac3d
00000240: b376 8dbd cf4c 3d3d fcee 20bd b3b9 9ebd
00000250: 271b 9ebd ea1a 31bd 489d c73d 20ea 11bc
00000260: 8163 3abc 1007 1f3b c0c2 bf3d 7cdc 5a3d
00000270: 9369 983d 24d5 81bd 4972 38bb 2cd0 84bd
00000280: 2811 3aad d433 882c d775 61b0 79e4 972e
00000290: eda0 0d3d 2b4b 85bd f6a3 5fbc b596 b73d
000002a0: 3ec9 35bd a4b9 a9bc 82af 9fbd 43ea 9b3d
000002b0: 806b b0bd 74d3 a3bd 5d40 733d 6242 1bbd
000002c0: 2f60 3abd 7b0b 90bc f70d 6f3d ddbc cabb
000002d0: 842a bc3d 7031 d13d 45db 5d3d 1e2d debb
000002e0: 47bd aebc c43a 2ebd f4c6 a2bd 91d3 9c3b
000002f0: 81c2 8e3d 01ac cf3d 0bc5 3b3d 5a22 82bc
00000300: b14a 87ac 0530 81ae 670f 21ad 4ee8 49ae
00000310: 547b b73b d04b 9b3d ea0b 67bd 6992 b83d
00000320: 8468 693d 8569 30bd 32db 053c 4f4d bb3d
00000330: 6e41 f4bc af40 293d 165a 923c 6765 9abd
00000340: 0996 043c b022 b93c fbe0 463d 8cf0 dbbc
00000350: a72c 9c3d c917 88bd c43d ab3d ca86 a6bd
00000360: 82fd a9bd 039f 813c 32f0 23b9 8762 23bc
00000370: 027c e9bc a159 e0bc ae39 a1bd 8e06 fcbd
00000380: 7687 ba2a cedb 35ac d693 47a9 e7ed 06ab
00000390: e2a2 a73d ce87 993c 4764 b3bc a033 1abd
000003a0: ac4e f8bc e5b5 93bd e1ff 73ba 67ed c53b
000003b0: ae99 95bc cd79 82bd aec9 953d dfcc 0ebc
000003c0: 0523 993c fab2 553d 5e86 0b3d d295 bebc
000003d0: a39d db3b bc19 ad3d 73a1 10bc 7a91 45bc
000003e0: 3bd8 963c 68bf a9bc a618 8b3b 0fce 8f3c
000003f0: 9656 b5bc 7d2a b63d 8884 35bc 6899 073c
3.668513e-11 -8.68737e-10 3.4462114e-12 2.6679405e-12 0.08416931 0.07430182 0.096903525 0.10302135
-0.08853261 -0.113395825 -0.055277172 0.02425363 -0.017178105 -0.008346945 0.05950114 0.045347475
-0.034911193 -0.098406106 -0.0822885 -0.028018842 -0.0044053136 -0.006862988 -0.039902516 0.010081386
0.044939093 0.055734184 0.0038927996 -0.078061126 -0.07333464 0.089019135 0.05693724 0.016983187
-2.7849986e-10 -6.105552e-10 -9.026147e-10 -1.3922033e-10 -0.06190967 -0.05261507 0.0006992189 0.10245719
-0.04906851 -0.088741966 -0.031167775 -0.08957102 -0.022826787 -0.018303292 -0.05496484 -0.10025533
0.10834175 -0.02010936 -0.03405461 -0.034474622 0.04633702 0.036385156 0.042605963 -0.021017296
-0.06820216 0.0660261 0.044639353 -0.073184766 -0.06143639 -0.06371131 0.08048783 -0.018818844
3.129082e-10 -9.42141e-14 -2.0344075e-11 -2.4665127e-12 0.045192305 0.014439069 0.033050988 -0.07821559
-0.10590862 -0.07322943 -0.094991975 -0.004451857 -0.04775292 0.018042931 0.060335793 0.015483834
-0.022849986 0.010348562 -0.072361045 0.043438267 -0.071669996 -0.056603983 0.0136639625 -0.060360923
0.088638216 -0.025308521 -0.08900523 -0.055259146 0.024661964 0.0841692 -0.037967354 -0.03291051
3.3009923e-12 -9.542908e-13 1.5460515e-11 1.1402167e-10 0.039594106 0.100213416 -0.023270791 0.07451275
0.0049365265 0.06730783 -0.11077586 -0.07722866 0.039623313 0.017079486 0.04509494 0.10698466
-0.0022487035 -0.004274969 -0.028543098 -0.04710761 0.046320114 -0.07152967 -0.031155787 -0.008035485
0.021020083 0.048023485 -0.018947927 -0.058650382 0.023156956 0.014237991 -0.00096460694 -0.08237277
-3.6119926e-11 -9.0154817e-10 1.0845507e-12 7.5355294e-10 0.04262687 -0.040844016 -0.00454353 0.016516486
-0.043138273 0.008347806 -0.12405504 0.006134502 -0.07908834 -0.026573133 0.006315655 0.084067054
-0.06907406 0.04621583 -0.039290413 -0.07750263 -0.07720023 -0.043238558 0.09746796 -0.008905917
-0.011376263 0.0024265684 0.093633175 0.053432927 0.07442012 -0.063394815 -0.002814429 -0.06485018
-1.0576685e-11 3.8711066e-12 -8.2021984e-10 6.90727e-11 0.0345773 -0.06508478 -0.013649931 0.08964292
-0.044381373 -0.020718403 -0.07797147 0.07613041 -0.08614254 -0.07999316 0.059387553 -0.037905104
-0.045501884 -0.0175836 0.058362927 -0.006187065 0.09187797 0.102145076 0.05416419 -0.0067802807
-0.021330489 -0.042536512 -0.079481035 0.004785963 0.069706924 0.10140229 0.04584221 -0.01588552
-3.845223e-12 -5.874771e-11 -9.1552104e-12 -4.5908437e-11 0.0055994187 0.075828195 -0.056407847 0.090123005
0.05698444 -0.04306938 0.008169936 0.09145605 -0.029816356 0.041321453 0.017865222 -0.07538872
0.008092412 0.022599548 0.0485544 -0.0268481 0.07625704 -0.06645162 0.0836139 -0.08131178
-0.08300306 0.015822893 -0.00015634371 -0.009972221 -0.028501514 -0.027386488 -0.0787233 -0.12305938
3.3134232e-13 -2.5843663e-12 -4.4315104e-14 -4.793652e-13 0.08185364 0.018741515 -0.021898402 -0.03764689
-0.030310951 -0.07212428 -0.0009307843 0.0060402635 -0.018261757 -0.06370888 0.07313858 -0.008715837
0.018693456 0.05217264 0.03406369 -0.0232648 0.0067021414 0.08452174 -0.008827555 -0.01205861
0.018413654 -0.020721152 0.0042448817 0.017554311 -0.022136014 0.08894823 -0.011078961 0.008276321

conv3.bias f4 [4]
00000000: 20fb 39be d41c 113b 374b 703d 5297 2ebd
-0.18162203 0.0022142427 0.05866548 -0.04262478

norm3.weight f4 [4]
00000000: 8783 803f 464a 783f 4129 7e3f 17e8 803f
1.0040139 0.9698833 0.992817 1.0070828

norm3.bias f4 [4]
00000000: f91e b3bc 9522 d2bc 70f7 0bbd a7bc 3bbd
-0.021865355 -0.025651256 -0.03417152 -0.04583421

norm3.running_mean f4 [4]
00000000: e2d0 febe fa8b 8b3c c25e 2c3a 8f02 0e3e
-0.4976874 0.01703452 0.00065753993 0.13868164

norm3.running_var f4 [4]
00000000: 2e56 1b3e 89cb 883e 8b5f 8a3e c724 9a3e
0.15169594 0.26717785 0.27026019 0.30106184

out_proj.weight f4 [2, 256]
00000000: 7280 7b3c 1d9d 17bd 102f 263c e399 82bc
00000010: a2d7 d13c 37e9 ec3c 5e2f c23c 6b32 543a
00000020: 9bad 81bc fbcb 8bbd 46b7 a2bc e02c 933b
00000030: 98a8 9b3a 7cfd ed3c 016e bfbc 9ba1 59bc
00000040: 8eb3 5bbb e3ad 75bd cd2c 76bc db13 f7bb
00000050: ed71 383c 0100 cfbc 8fe8 433d 0411 f83c
00000060: 6940 32bd 4eae 693c 1a2f 8ebd ab9f 57bd
00000070: 9b7e ee3c 98eb ebbc b78e 03bd edb0 74bd
00000080: 1b1b faba 8707 8c3c d1cf 47bd c149 17bd
00000090: a8ae 6cbc 993a 33bd 50a5 1bbd 2fe5 8fbc
000000a0: 3753 2ebd c727 03be 5d10 97bd a57c da3b
000000b0: 7b53 b4bc a01d e7bc 1055 11bd 708a f7bc
000000c0: c692 9abc 5f14 adbd 03d4 82bd 8137 af3c
000000d0: cb45 2bbd 9324 963d 2192 23bc af81 503c
000000e0: 16fa d4bc cde5 64bd e822 d33c a87d 81bd
000000f0: 86f7 d9bc a8c0 6a3d d9f2 fbbc 11b2 e9bc
00000100: 2b86 263d 1520 46bd 86a6 f43c bf43 5bbd
00000110: 211a 003d 4f41 39bd a8fa 803d 684a 54bd
00000120: d8bf 88bd 2174 353c 987a 883d bc97 72bd
00000130: d605 49bc e73f 1c3d 4495 d43c 33f0 923c
00000140: ff38 7dbd 1d6a 95bc 444e febb ee7b 0c3d
00000150: 5310 0a3d 993c 6fbd 7d9d 0c3d 299b 25bc
00000160: 9cb9 20bd 6c51 48bc 6d29 ae3a 9a5e df3c
00000170: 3411 12bd a019 88bd f3d9 fbba bf77 8f3b
00000180: 7b4e 873c 9db9 f73b 0bbd 10bd aad7 35bc
00000190: e699 28bc becd edbc 5750 533d 0390 12bd
000001a0: 6fb0 36bd 1ed4 e0bc a5c1 c93c 8486 933c
000001b0: a61f 843d 23ee 56bd a716 813c 0d40 0d3d
000001c0: 3614 1c3d d63a 723d 6e03 0b3d e69d 1dbd
000001d0: 681f 4b3d 42c4 01bd 7292 493d 9fb7 78bc
000001e0: b96a 283c 7728 9f3d 04ba 843d 3c12 3ebd
000001f0: a7c3 b1bc 86f7 a3bc 598b a9bc daa8 123d
00000200: d6c9 2fbd 42a8 cbbc 47ae 1abd fd45 8bbc
00000210: aeff 563d 2633 efbb 2158 08bd c2b0 b0bd
00000220: b606 073d c998 803c 2310 5fbd 9cd2 ed3c
00000230: 8bd7 353d 1012 0d3d 4553 48ba 0e55 dcbc
00000240: fa34 0bbc 8645 b23c 36a2 00bd f3b3 083d
00000250: bf53 6d3d b19f cb39 b9c5 f83c 93e0 543c
00000260: 58c3 28bd ab83 30bc ce67 013c 2caa 65bc
00000270: bb2c 2c3d 20e7 193b 658a 8f3d d35e 3ebd
00000280: 6295 42bd 5a8c ec3c 26b8 bf3c e4b4 e1bc
00000290: c54a 09bd d1ce 44bd 9475 1ebd 1c47 07bc
000002a0: 3d83 493d d2dc 6d3a 9277 363d 5068 a73d
000002b0: cd02 1d39 faf0 2bbd 1998 973c 19e3 2b3d
000002c0: e0e5 4c3d 9ff6 52bd 2feb 853d 8773 993d
000002d0: 9cb6 87bd 35aa 2d3c 82c8 123d 440e c8bc
000002e0: dbde 533d 6255 d83c c7ca 1d3d b3c9 a13d
000002f0: f92f 363d 4b0d 823d 2954 0dbb f8bf 513d
00000300: a893 19bd fa52 1bbd 4e43 4dbc 158b 8bbc
00000310: 876d 953d 57fb 193c 5eac f13c 575c b43c
00000320: 7565 46bd fa68 60bd 8f52 1f3d ff2e 553a
00000330: fcb3 a03d 9868 46bd 5645 e1bb 0ba4 033d
00000340: 27da 00bd 9ec2 85bd 9c28 983d 9dcd a63c
00000350: e233 613c 4f5e febc 2a80 45bd 526f 35bd
00000360: 0eb2 773c e257 43bd 7cac a03d 70d7 d1bc
00000370: 6bee c53c 44de e0bc 049f 993c 7e00 623d
00000380: 4b07 2d3d 060f 0a3d f504 52bc 84a7 3ebd
00000390: 44f4 1cbd ff00 e63c 6743 bb3d cb33 563b
000003a0: 2c15 e8bb 7532 cfbc 3443 943c 5dc8 f9b9
000003b0: f678 6abd 974a a7bc 3b7f 703d 5f27 a93c
000003c0: 6c23 a23b c82b 6e3c ee07 cc3c 1e9d 72bd
000003d0: c946 4dbd 2bc5 503d 3d41 173c 1852 91bb
000003e0: eecb 02bc 1909 d2bc b085 853a c5cb 70bd
000003f0: f4eb 363d 25c6 1b3d 5172 c9bc 7ff7 b6bc
0.015350448 -0.03701507 0.0101430565 -0.01594252 0.025615517 0.0289198 0.023704227 0.0008094671
-0.015829852 -0.068260156 -0.019862782 0.0044914335 0.0011875806 0.029051535 -0.023367884 -0.013283159
-0.003352377 -0.059980284 -0.01502533 -0.0075402088 0.011257631 -0.025268557 0.047829207 0.030281551
-0.043518458 0.014262749 -0.06942578 -0.052642506 0.029113105 -0.028798863 -0.032118525 -0.059739042
-0.0019081564 0.017093433 -0.048782174 -0.03693557 -0.014445938 -0.043757055 -0.03799945 -0.017565338
-0.04255983 -0.12808143 -0.07376168 0.006667691 -0.022012463 -0.028212368 -0.035481513 -0.03021738
-0.018868815 -0.08451151 -0.06388094 0.021388771 -0.041814607 0.07331195 -0.00998357 0.0127262315
-0.025998157 -0.055883218 0.02577348 -0.06322795 -0.026607286 0.057312638 -0.030755447 -0.028527291
0.040655296 -0.04837044 0.02986456 -0.053531405 0.03127492 -0.0452283 0.06297809 -0.05182877
-0.06677216 0.011075051 0.06664008 -0.059226736 -0.012269458 0.03814688 0.025950082 0.017936802
-0.061821934 -0.018239075 -0.007760795 0.034297876 0.033706974 -0.0584074 0.03432988 -0.010107794
-0.03923951 -0.012226444 0.0013287492 0.02726679 -0.035660937 -0.066455126 -0.0019214734 0.0043782885
0.016516915 0.0075599686 -0.035336535 -0.011098782 -0.0102905985 -0.02902877 0.05159029 -0.03578187
-0.044601854 -0.027444895 0.02462847 0.018008478 0.06451349 -0.0524732 0.015757872 0.03448491
0.038105212 0.05913814 0.033938818 -0.03848066 0.0495905 -0.031681307 0.049211927 -0.015180497
0.010279351 0.0777139 0.06480792 -0.04640411 -0.02169974 -0.02001549 -0.020696329 0.03580556
-0.042917095 -0.024860505 -0.03776386 -0.017001146 0.05248993 -0.0072997985 -0.03328717 -0.08627464
0.032965384 0.015697854 -0.05445875 0.02903109 0.04439501 0.034441054 -0.00076418027 -0.026896026
-0.008496517 0.021761667 -0.031404696 0.033374738 0.057941195 0.00038838157 0.030367719 0.012992996
-0.04120192 -0.01077358 0.007898284 -0.014017623 0.042034846 0.0023483709 0.070088185 -0.04647715
-0.047505744 0.028875519 0.023403239 -0.027552076 -0.03351857 -0.048048798 -0.03868635 -0.0082567
0.049197424 0.00090737373 0.044547625 0.08174193 0.0001497373 -0.04197786 0.018505143 0.041964624
0.050023913 -0.051504727 0.06538998 0.07492738 -0.06626627 0.010599663 0.03583575 -0.024420865
0.051726203 0.026407901 0.03852346 0.07899799 0.044479344 0.06350192 -0.0021565056 0.051208466
-0.03749433 -0.03792093 -0.012528254 -0.017034093 0.07296281 0.009398303 0.029501136 0.022016687
-0.0484366 -0.054787613 0.038897093 0.0008132308 0.07846829 -0.048439592 -0.0068747206 0.032138865
-0.031458046 -0.06531261 0.074296206 0.020361716 0.01374528 -0.03105083 -0.04821793 -0.044295616
0.015118135 -0.047691233 0.07845399 -0.025615424 0.024161538 -0.027449735 0.018752582 0.05517625
0.042243283 0.033705734 -0.012818565 -0.046546474 -0.038318887 0.028076647 0.09143715 0.003268468
-0.007082602 -0.025292614 0.018098451 -0.00047642263 -0.057244264 -0.02042131 0.058715086 0.020648656
0.0049480703 0.014536805 0.024906125 -0.05923187 -0.050116334 0.050969284 0.009231863 -0.004434835
-0.007983191 -0.025639104 0.0010186937 -0.05878808 0.044658616 0.038030762 -0.024590643 -0.022334812

out_proj.bias f4 [2]
00000000: a4c2 7abc b97a 65bc
-0.015305195 -0.01400631
